model_demo.tflite (tflite, 322288 bytes, 28 tensors)

model_2/dense_2/MatMul i1 [4, 256] scale=0.0012764402 zero_point=0
00000000: e00f e43b 3d58 f0f1 a710 504f 0c82 edda
00000010: 52e0 ee4a 946b 46d1 10d0 fc4a 02a3 3af4
00000020: ba41 835b 6010 e3b8 0c8f d9e3 b115 5c0b
00000030: 43ea bbc4 3490 f23e f98d d95e bbc9 bad7
00000040: 071b 5232 066c e313 d4a5 9527 474d 3dac
00000050: c114 1c3c 219d fc64 61ca a752 9be0 17e5
00000060: d402 cf63 0286 4b04 5bf3 cb68 ad2f 298f
00000070: 4469 2e91 0c58 bb21 97d7 aefd 3649 5e6e
00000080: 3163 5ce9 e4ca 6b39 dee7 a79e b9e0 3cc9
00000090: 554e 584f d12a 05a3 90d2 d26e 5659 d8ea
000000a0: b10f 6a47 febb 2d1f 23cb 4d91 20fc 0d4f
000000b0: 141e 080a b5a2 0f6a 52cd d499 43fb 7038
000000c0: 9bc1 5fac 6c01 b620 62c4 93af b2a2 4863
000000d0: 5262 d1ef 6015 f40e 8b5d beff 2992 113f
000000e0: 43b6 a607 3f97 e648 064a 2419 4c12 f2c6
000000f0: d68f 0015 6b04 4cbc aba2 b7ee 6e58 dd9b
-0.040846087 0.019146603 -0.035740327 0.07530997 0.07786285 0.11232674 -0.020423044 -0.019146603
-0.11360318 0.020423044 0.102115214 0.10083878 0.015317283 -0.16083147 -0.024252364 -0.04850473
0.104668096 -0.040846087 -0.022975923 0.094456576 -0.13785554 0.1365791 0.08935081 -0.05999269
0.020423044 -0.06126913 -0.005105761 0.094456576 0.0025528804 -0.11870894 0.074033536 -0.015317283
-0.08935081 0.082968615 -0.15955503 0.11615606 0.12253826 0.020423044 -0.037016768 -0.091903694
0.015317283 -0.14423774 -0.04978117 -0.037016768 -0.10083878 0.026805244 0.1174325 0.014040843
0.0855215 -0.028081685 -0.08807438 -0.07658641 0.06637489 -0.14296131 -0.017870164 0.07913929
-0.008935082 -0.14679062 -0.04978117 0.11998538 -0.08807438 -0.07020421 -0.08935081 -0.052334048
0.008935082 0.034463886 0.104668096 0.06382201 0.0076586413 0.13785554 -0.037016768 0.024252364
-0.05616337 -0.11615606 -0.1365791 0.04978117 0.09062725 0.0982859 0.07786285 -0.10722098
-0.08041573 0.025528803 0.035740327 0.07658641 0.042122528 -0.12636758 -0.005105761 0.12764402
0.1238147 -0.06892777 -0.11360318 0.104668096 -0.12892047 -0.040846087 0.029358124 -0.034463886
-0.05616337 0.0025528804 -0.06254557 0.12636758 0.0025528804 -0.1557257 0.09573302 0.005105761
0.11615606 -0.016593723 -0.06765133 0.13274978 -0.10594454 0.05999269 0.052334048 -0.14423774
0.08679794 0.13402623 0.05871625 -0.14168486 0.015317283 0.11232674 -0.08807438 0.042122528
-0.13402623 -0.052334048 -0.104668096 -0.0038293207 0.06892777 0.093180135 0.11998538 0.14040843
0.06254557 0.12636758 0.1174325 -0.029358124 -0.035740327 -0.06892777 0.1365791 0.072757095
-0.04339897 -0.031911004 -0.11360318 -0.12509114 -0.09062725 -0.040846087 0.07658641 -0.07020421
0.10849742 0.09956234 0.11232674 0.10083878 -0.05999269 0.05361049 0.006382201 -0.11870894
-0.14296131 -0.05871625 -0.05871625 0.14040843 0.10977386 0.11360318 -0.051057607 -0.028081685
-0.10083878 0.019146603 0.13530266 0.09062725 -0.0025528804 -0.08807438 0.05743981 0.039569646
0.044675406 -0.06765133 0.0982859 -0.14168486 0.040846087 -0.005105761 0.016593723 0.10083878
0.025528803 0.038293205 0.010211522 0.012764402 -0.09573302 -0.11998538 0.019146603 0.13530266
0.104668096 -0.06509845 -0.05616337 -0.13147335 0.0855215 -0.006382201 0.14296131 0.071480654
-0.12892047 -0.08041573 0.12126182 -0.10722098 0.13785554 0.0012764402 -0.094456576 0.040846087
0.12509114 -0.07658641 -0.13913198 -0.103391655 -0.09956234 -0.11998538 0.091903694 0.12636758
0.104668096 0.12509114 -0.05999269 -0.021699484 0.12253826 0.026805244 -0.015317283 0.017870164
-0.1493435 0.11870894 -0.084245056 -0.0012764402 0.052334048 -0.14040843 0.021699484 0.08041573
0.0855215 -0.094456576 -0.11487962 0.008935082 0.08041573 -0.13402623 -0.033187445 0.091903694
0.0076586413 0.094456576 0.045951847 0.031911004 0.09700946 0.022975923 -0.017870164 -0.074033536
-0.05361049 -0.14423774 0.0 0.026805244 0.1365791 0.005105761 0.09700946 -0.08679794
-0.10849742 -0.11998538 -0.093180135 -0.022975923 0.14040843 0.11232674 -0.044675406 -0.12892047

std.constant i1 [8, 3, 3, 3]
00000000: 2f39 0812 fcf6 2f32 12f4 e6e5 b181 c304
00000010: ebe2 def3 01a6 bf01 e2f4 fe1b 0b07 527f
00000020: 4eff f6f6 04e6 f677 4c05 e2e1 f2dd fa09
00000030: 08ef eace fb08 0000 0000 0000 0000 0000
00000040: 0000 0000 0000 0000 0000 0000 0000 0000
00000050: 0048 7a4c f3d7 eeed f0f7 7f6e 23c9 de0b
00000060: eaf5 fe3d f6ea e5ff 0e0b 0efb 5981 2846
00000070: caf1 0827 cf5a 8c19 3df4 cdf3 6ba3 20e7
00000080: f80a 2ec7 e06b b200 0000 0000 0000 0000
00000090: 0000 0000 0000 0000 0000 0000 0000 0000
000000a0: 0000 1e38 2be5 f303 e9e1 f768 7f23 232f
000000b0: 0eec dcf2 2521 03fb eff3 d5ca fb00 0000
000000c0: 0000 0000 0000 0000 0000 0000 0000 0000
000000d0: 0000 0000 0000 0000
47 57 8 18 -4 -10 47 50
18 -12 -26 -27 -79 -127 -61 4
-21 -30 -34 -13 1 -90 -65 1
-30 -12 -2 27 11 7 82 127
78 -1 -10 -10 4 -26 -10 119
76 5 -30 -31 -14 -35 -6 9
8 -17 -22 -50 -5 8 0 0
0 0 0 0 0 0 0 0
0 0 0 0 0 0 0 0
0 0 0 0 0 0 0 0
0 72 122 76 -13 -41 -18 -19
-16 -9 127 110 35 -55 -34 11
-22 -11 -2 61 -10 -22 -27 -1
14 11 14 -5 89 -127 40 70
-54 -15 8 39 -49 90 -116 25
61 -12 -51 -13 107 -93 32 -25
-8 10 46 -57 -32 107 -78 0
0 0 0 0 0 0 0 0
0 0 0 0 0 0 0 0
0 0 0 0 0 0 0 0
0 0 30 56 43 -27 -13 3
-23 -31 -9 104 127 35 35 47
14 -20 -36 -14 37 33 3 -5
-17 -13 -43 -54 -5 0 0 0
0 0 0 0 0 0 0 0
0 0 0 0 0 0 0 0
0 0 0 0 0 0 0 0

std.constant1 i1 [16, 1, 1, 8]
00000000: e17f 0026 fc00 0600 4a81 00aa 03ff df00
00000010: 0a81 0019 0300 fe00 b4da 0081 b4ff 1b00
00000020: 0000 0000 0000 0000 f6e7 001d 7fff fc00
00000030: 117f 0078 0400 f300 0000 0000 0000 0000
00000040: fddb 007f 0000 0500 0000 0000 7f01 0000
00000050: 0498 0081 ff00 ff00 0000 0000 0000 0000
00000060: 7f12 00f3 0200 a700 0000 0000 0000 0000
00000070: d87f 0034 f601 0700 e971 007f fdff 0c00
-31 127 0 38 -4 0 6 0
74 -127 0 -86 3 -1 -33 0
10 -127 0 25 3 0 -2 0
-76 -38 0 -127 -76 -1 27 0
0 0 0 0 0 0 0 0
-10 -25 0 29 127 -1 -4 0
17 127 0 120 4 0 -13 0
0 0 0 0 0 0 0 0
-3 -37 0 127 0 0 5 0
0 0 0 0 127 1 0 0
4 -104 0 -127 -1 0 -1 0
0 0 0 0 0 0 0 0
127 18 0 -13 2 0 -89 0
0 0 0 0 0 0 0 0
-40 127 0 52 -10 1 7 0
-23 113 0 127 -3 -1 12 0

std.constant2 i1 [32, 1, 1, 16]
00000000: ff01 0001 00fc 0000 007f 0200 0100 ff01
00000010: 0000 0000 0000 0000 0000 0000 0000 0000
00000020: 1fb7 0b00 0102 0500 1400 1600 0b00 e881
00000030: 1d12 f3ff ff00 0000 81ff 0800 0900 e1e6
00000040: fd0a 0001 00e4 ff00 ff7f fc00 0200 fe01
00000050: 24ec 0667 ffff 8100 ff01 f900 0a00 24fe
00000060: 0ef4 07f6 0003 0300 fffb 7f00 fd00 0700
00000070: 2514 8104 0002 f400 4000 0700 fc00 de05
00000080: 0000 0000 0000 0000 0000 0000 0000 0000
00000090: 0000 0000 0000 0000 0000 0000 0000 0000
000000a0: 2020 fcf8 00fe 1e00 05fb 3500 2d00 f77f
000000b0: 3c10 c1ff 00ff 0100 7fff fa00 0600 d2fa
000000c0: fc07 fe02 0108 fd00 ff81 f400 0100 ff00
000000d0: 22ea 7ffb 00fe 0300 fd00 0500 fe00 dd2f
000000e0: 3581 f3f9 00fe 2700 eb02 1400 f600 2cce
000000f0: ff01 0e02 0001 ff00 03fc 7f00 0b00 f908
-1 1 0 1 0 -4 0 0
0 127 2 0 1 0 -1 1
0 0 0 0 0 0 0 0
0 0 0 0 0 0 0 0
31 -73 11 0 1 2 5 0
20 0 22 0 11 0 -24 -127
29 18 -13 -1 -1 0 0 0
-127 -1 8 0 9 0 -31 -26
-3 10 0 1 0 -28 -1 0
-1 127 -4 0 2 0 -2 1
36 -20 6 103 -1 -1 -127 0
-1 1 -7 0 10 0 36 -2
14 -12 7 -10 0 3 3 0
-1 -5 127 0 -3 0 7 0
37 20 -127 4 0 2 -12 0
64 0 7 0 -4 0 -34 5
0 0 0 0 0 0 0 0
0 0 0 0 0 0 0 0
0 0 0 0 0 0 0 0
0 0 0 0 0 0 0 0
32 32 -4 -8 0 -2 30 0
5 -5 53 0 45 0 -9 127
60 16 -63 -1 0 -1 1 0
127 -1 -6 0 6 0 -46 -6
-4 7 -2 2 1 8 -3 0
-1 -127 -12 0 1 0 -1 0
34 -22 127 -5 0 -2 3 0
-3 0 5 0 -2 0 -35 47
53 -127 -13 -7 0 -2 39 0
-21 2 20 0 -10 0 44 -50
-1 1 14 2 0 1 -1 0
3 -4 127 0 11 0 -7 8

std.constant3 i1 [32, 1, 1, 32]
00000000: 3000 0688 faf9 3105 0000 067f 052e 03e5
00000010: 0005 1613 331e 6d02 3b33 fefe fb0e 02fe
00000020: fc00 041d f274 1702 0000 f7e9 fffd fc05
00000030: 00fc 2220 1402 e908 f6f9 0029 7f26 eefe
00000040: 0500 eb16 02cc 300d 0000 50fb 1cd4 64b0
00000050: 00f8 0b08 f2d3 0881 18e0 9ee1 c2b5 aa64
00000060: 0d00 fda3 dd14 a307 0000 06f4 e32d 027e
00000070: 00e2 00ff d335 d07f a746 04da 1bdd fd08
00000080: 0400 17f1 06c8 2b01 0000 49ff 0007 5454
00000090: 00fe f5fe 130e fa1c f119 8101 bfca 1452
000000a0: 0400 f217 0325 08fb 0000 7f03 040d b20b
000000b0: 00f5 1edd fc0a f7cd 001a 1b02 08fa f655
000000c0: 0600 e9ea 04c7 0623 0000 9da8 132f 111f
000000d0: 008c 7b3a 0cf8 e068 a212 18f4 caf9 7f75
000000e0: 9600 fbfc 8105 03fd 0000 010a 780f fe01
000000f0: 00fa 0501 ff01 ff05 fc01 fe6d 010b ff06
48 0 6 -120 -6 -7 49 5
0 0 6 127 5 46 3 -27
0 5 22 19 51 30 109 2
59 51 -2 -2 -5 14 2 -2
-4 0 4 29 -14 116 23 2
0 0 -9 -23 -1 -3 -4 5
0 -4 34 32 20 2 -23 8
-10 -7 0 41 127 38 -18 -2
5 0 -21 22 2 -52 48 13
0 0 80 -5 28 -44 100 -80
0 -8 11 8 -14 -45 8 -127
24 -32 -98 -31 -62 -75 -86 100
13 0 -3 -93 -35 20 -93 7
0 0 6 -12 -29 45 2 126
0 -30 0 -1 -45 53 -48 127
-89 70 4 -38 27 -35 -3 8
4 0 23 -15 6 -56 43 1
0 0 73 -1 0 7 84 84
0 -2 -11 -2 19 14 -6 28
-15 25 -127 1 -65 -54 20 82
4 0 -14 23 3 37 8 -5
0 0 127 3 4 13 -78 11
0 -11 30 -35 -4 10 -9 -51
0 26 27 2 8 -6 -10 85
6 0 -23 -22 4 -57 6 35
0 0 -99 -88 19 47 17 31
0 -116 123 58 12 -8 -32 104
-94 18 24 -12 -54 -7 127 117
-106 0 -5 -4 -127 5 3 -3
0 0 1 10 120 15 -2 1
0 -6 5 1 -1 1 -1 5
-4 1 -2 109 1 11 -1 6

std.constant4 i1 [64, 1, 1, 32]
00000000: 0301 19ed 1b1f 0a11 f322 f8ea be09 f17f
00000010: eb06 05fc 2212 0606 faee 0a0b 3ff9 1c1d
00000020: 0003 fc00 0106 007f 0701 14fb 01fa fe02
00000030: 0000 0011 01fe 0201 feff 95fc fc04 00ee
00000040: 0206 ee02 fdfe 01fa 8111 20f0 fd68 1bff
00000050: ee07 fbf8 1a02 1303 fafd 0dfe 28f5 0816
00000060: 152a 75d0 7876 0805 1a52 05da bb0a c749
00000070: d30d 3efc 127f f709 1dd3 065c 34d3 5b23
00000080: 000c 0500 000a 0004 effa 7f02 f3f7 030e
00000090: 00fc fe09 0402 fbfa 0701 1202 f005 0f0b
000000a0: a9be bdfb dc17 f7fb 12db 0b6c dc6c bef8
000000b0: 2602 0af7 fe00 0515 270c f4f0 2eb5 7fef
000000c0: f9ea 93f0 3804 4ef3 020f fef8 15f3 fedc
000000d0: f101 f103 fcae c6c7 81f3 f847 05fc f4fb
000000e0: eded f8fc 71e8 f203 09fa 0d1c 0538 eded
000000f0: 00fb 00fd 1303 1411 14fa 08e6 e81c 81fa
3 1 25 -19 27 31 10 17
-13 34 -8 -22 -66 9 -15 127
-21 6 5 -4 34 18 6 6
-6 -18 10 11 63 -7 28 29
0 3 -4 0 1 6 0 127
7 1 20 -5 1 -6 -2 2
0 0 0 17 1 -2 2 1
-2 -1 -107 -4 -4 4 0 -18
2 6 -18 2 -3 -2 1 -6
-127 17 32 -16 -3 104 27 -1
-18 7 -5 -8 26 2 19 3
-6 -3 13 -2 40 -11 8 22
21 42 117 -48 120 118 8 5
26 82 5 -38 -69 10 -57 73
-45 13 62 -4 18 127 -9 9
29 -45 6 92 52 -45 91 35
0 12 5 0 0 10 0 4
-17 -6 127 2 -13 -9 3 14
0 -4 -2 9 4 2 -5 -6
7 1 18 2 -16 5 15 11
-87 -66 -67 -5 -36 23 -9 -5
18 -37 11 108 -36 108 -66 -8
38 2 10 -9 -2 0 5 21
39 12 -12 -16 46 -75 127 -17
-7 -22 -109 -16 56 4 78 -13
2 15 -2 -8 21 -13 -2 -36
-15 1 -15 3 -4 -82 -58 -57
-127 -13 -8 71 5 -4 -12 -5
-19 -19 -8 -4 113 -24 -14 3
9 -6 13 28 5 56 -19 -19
0 -5 0 -3 19 3 20 17
20 -6 8 -26 -24 28 -127 -6

std.constant5 i1 [64, 1, 1, 64]
00000000: 1dfd fc06 2720 9b61 f2d5 eb29 0203 b181
00000010: 6606 e1ea edcd 2f0b 030d 51bc f704 f7d3
00000020: 02f7 1f02 072f 182d f8cc 2adc 371a cfee
00000030: face c0e9 69e6 4a3d 2811 26f7 0ee1 1dcc
00000040: c00c a0ed de43 ffea f6fa fe5a 6b51 1a2e
00000050: b931 0821 81d5 d3f1 0c01 1214 f51e e74b
00000060: f107 cad1 f4f0 dffc d924 2206 e4fb 04d9
00000070: fba8 085c 0ecb f1af 131e e713 0df8 0772
00000080: 0403 02fd 0903 f906 fef5 ef01 00f8 f4ff
00000090: f5fb fdf5 0203 0816 fd0e 0103 0301 04fc
000000a0: 7ff7 0108 0302 02fd 0300 0603 fc08 0603
000000b0: 0000 f6fd ea02 fa01 14fd 0509 0100 ff05
000000c0: 1df9 c5fe fdd2 ac48 fdf9 fbef dbdc eee1
000000d0: 05d1 c601 0648 21f7 f711 ba1f f3e8 d2dc
000000e0: fcf3 4f3a 09db e2ea 06cf e3bc 7f08 de3f
000000f0: 0f0c 09b4 fb21 e61e f3de f1c2 f9b4 fdef
29 -3 -4 6 39 32 -101 97
-14 -43 -21 41 2 3 -79 -127
102 6 -31 -22 -19 -51 47 11
3 13 81 -68 -9 4 -9 -45
2 -9 31 2 7 47 24 45
-8 -52 42 -36 55 26 -49 -18
-6 -50 -64 -23 105 -26 74 61
40 17 38 -9 14 -31 29 -52
-64 12 -96 -19 -34 67 -1 -22
-10 -6 -2 90 107 81 26 46
-71 49 8 33 -127 -43 -45 -15
12 1 18 20 -11 30 -25 75
-15 7 -54 -47 -12 -16 -33 -4
-39 36 34 6 -28 -5 4 -39
-5 -88 8 92 14 -53 -15 -81
19 30 -25 19 13 -8 7 114
4 3 2 -3 9 3 -7 6
-2 -11 -17 1 0 -8 -12 -1
-11 -5 -3 -11 2 3 8 22
-3 14 1 3 3 1 4 -4
127 -9 1 8 3 2 2 -3
3 0 6 3 -4 8 6 3
0 0 -10 -3 -22 2 -6 1
20 -3 5 9 1 0 -1 5
29 -7 -59 -2 -3 -46 -84 72
-3 -7 -5 -17 -37 -36 -18 -31
5 -47 -58 1 6 72 33 -9
-9 17 -70 31 -13 -24 -46 -36
-4 -13 79 58 9 -37 -30 -22
6 -49 -29 -68 127 8 -34 63
15 12 9 -76 -5 33 -26 30
-13 -34 -15 -62 -7 -76 -3 -17

std.constant6 i1 [128, 1, 1, 64]
00000000: fed7 fc3d 0e06 eab2 0d7f 2cd0 1b03 01ec
00000010: f4b6 072e 220d e8cb 4bd0 1efe ff0a 10e5
00000020: 0a13 0d13 d28b dafd 6d16 004a 2afe 1800
00000030: 59de 47fc 0cfd 1807 41e7 e506 f007 c92d
00000040: 0a13 fff3 2f08 f4f0 f1fe fcfa f5fd f3df
00000050: 0b00 d081 0907 e606 f4e1 4bf4 040a ff0d
00000060: ff1f f807 f3e1 0a07 fd05 1700 f2e2 faf3
00000070: 07f1 e5fc 0bec f0fc 08f5 f0fb 0ff4 16f8
00000080: 0703 1cfc fbe2 0dfe f613 fdf9 f402 810e
00000090: 0a01 f80b f6fc 0404 ffed 03fb e4e6 ff03
000000a0: fd00 31fa 0602 fbd4 0908 f50a 0107 0d0b
000000b0: 0506 f3fa 02f6 f801 fd01 ff04 f4fe fc04
000000c0: f2f7 a6fe 00c1 f8f3 f8ff 0215 e6fa e1ee
000000d0: fbf4 ff05 fb0d f606 fe12 fe04 f843 ecf9
000000e0: fdfd 9b0a 01fb 0b81 fae1 0908 f905 d208
000000f0: 0512 0201 bdf4 fb03 00f3 0d0c ff09 f7fd
-2 -41 -4 61 14 6 -22 -78
13 127 44 -48 27 3 1 -20
-12 -74 7 46 34 13 -24 -53
75 -48 30 -2 -1 10 16 -27
10 19 13 19 -46 -117 -38 -3
109 22 0 74 42 -2 24 0
89 -34 71 -4 12 -3 24 7
65 -25 -27 6 -16 7 -55 45
10 19 -1 -13 47 8 -12 -16
-15 -2 -4 -6 -11 -3 -13 -33
11 0 -48 -127 9 7 -26 6
-12 -31 75 -12 4 10 -1 13
-1 31 -8 7 -13 -31 10 7
-3 5 23 0 -14 -30 -6 -13
7 -15 -27 -4 11 -20 -16 -4
8 -11 -16 -5 15 -12 22 -8
7 3 28 -4 -5 -30 13 -2
-10 19 -3 -7 -12 2 -127 14
10 1 -8 11 -10 -4 4 4
-1 -19 3 -5 -28 -26 -1 3
-3 0 49 -6 6 2 -5 -44
9 8 -11 10 1 7 13 11
5 6 -13 -6 2 -10 -8 1
-3 1 -1 4 -12 -2 -4 4
-14 -9 -90 -2 0 -63 -8 -13
-8 -1 2 21 -26 -6 -31 -18
-5 -12 -1 5 -5 13 -10 6
-2 18 -2 4 -8 67 -20 -7
-3 -3 -101 10 1 -5 11 -127
-6 -31 9 8 -7 5 -46 8
5 18 2 1 -67 -12 -5 3
0 -13 13 12 -1 9 -9 -3

std.constant7 i1 [128, 1, 1, 128]
00000000: e904 1dff f8fd e5f8 2206 f306 eaea fc37
00000010: 4101 2b0f 0f15 f70d 0210 1f13 0b0b f7fe
00000020: ed1b fa11 2eef 1c29 fa23 1f22 e416 ef09
00000030: 35f4 0fff 0ed5 f9fb d801 ebd7 11f2 ea05
00000040: 03fc f003 01fb fa13 f3e2 1908 01ff 0dec
00000050: e3ee 18e3 0181 0a01 e009 13f9 00e1 2bfd
00000060: 08f8 dffe 0814 c105 f80d f9d2 fbf9 102d
00000070: fc09 02fb 09ca 0bef 13e9 0417 0013 ff21
00000080: 6923 05fb 2509 f106 0ae8 eaf4 1d13 e8c4
00000090: edf1 812c 0812 0405 ff1a d032 19c7 0436
000000a0: 1129 f4e8 1327 3913 17f8 08f3 1730 5244
000000b0: 6f3d 2011 2b00 dff4 6ff3 fc06 fa03 3de1
000000c0: 0f15 ffa7 fef4 09f4 fff2 f000 0302 0f07
000000d0: fe20 e658 21f8 3011 e2ef 0202 0fed 1124
000000e0: f101 0066 080b 27e9 1905 1aea d636 f408
000000f0: ff2c 03c9 03d4 1a03 22df 0012 fb2e 1f1f
-23 4 29 -1 -8 -3 -27 -8
34 6 -13 6 -22 -22 -4 55
65 1 43 15 15 21 -9 13
2 16 31 19 11 11 -9 -2
-19 27 -6 17 46 -17 28 41
-6 35 31 34 -28 22 -17 9
53 -12 15 -1 14 -43 -7 -5
-40 1 -21 -41 17 -14 -22 5
3 -4 -16 3 1 -5 -6 19
-13 -30 25 8 1 -1 13 -20
-29 -18 24 -29 1 -127 10 1
-32 9 19 -7 0 -31 43 -3
8 -8 -33 -2 8 20 -63 5
-8 13 -7 -46 -5 -7 16 45
-4 9 2 -5 9 -54 11 -17
19 -23 4 23 0 19 -1 33
105 35 5 -5 37 9 -15 6
10 -24 -22 -12 29 19 -24 -60
-19 -15 -127 44 8 18 4 5
-1 26 -48 50 25 -57 4 54
17 41 -12 -24 19 39 57 19
23 -8 8 -13 23 48 82 68
111 61 32 17 43 0 -33 -12
111 -13 -4 6 -6 3 61 -31
15 21 -1 -89 -2 -12 9 -12
-1 -14 -16 0 3 2 15 7
-2 32 -26 88 33 -8 48 17
-30 -17 2 2 15 -19 17 36
-15 1 0 102 8 11 39 -23
25 5 26 -22 -42 54 -12 8
-1 44 3 -55 3 -44 26 3
34 -33 0 18 -5 46 31 31

std.constant8 i1 [128, 1, 1, 128]
00000000: 1059 1241 e1f5 f213 0a00 e605 3be1 2ffd
00000010: 402f 01d5 1bfb 0b0e fabf 03f9 ff28 0dac
00000020: ef2b 0b0d 0739 c7fa 2ede 4935 4513 2f0c
00000030: f518 cfe8 1f34 fc1b 051b f9f2 24f6 1117
00000040: e310 36dc 01db 1fa8 0143 f42f fd0c 17eb
00000050: ba24 f8fa dde8 da01 0908 dadc 7f15 4201
00000060: ef0a 3501 2a09 d83d 69ef e15a f80d db05
00000070: 32f8 1502 d944 1a6f 9505 fbf1 d8ba de14
00000080: ca0b 06c7 b7d6 e207 89fd f2bd 97dc 200c
00000090: cf01 0138 4265 3cd9 1cfd c281 f208 3ba0
000000a0: 1fda 10ee 14c9 f9c6 6ee8 39d7 a3ed ccf6
000000b0: 3ddb e1e3 20ac 11e9 f4f0 1a12 fc14 0dd2
000000c0: 88cb fbdb 2896 e902 e709 e905 e9f3 214f
000000d0: 04ff af42 f8f3 2301 fe0f 6c50 ec0d 5417
000000e0: e94e f14e ca06 19e0 3cd8 01ca a515 edd9
000000f0: eb2e d002 1bfa 099d 49cd 182f f4a6 12cf
16 89 18 65 -31 -11 -14 19
10 0 -26 5 59 -31 47 -3
64 47 1 -43 27 -5 11 14
-6 -65 3 -7 -1 40 13 -84
-17 43 11 13 7 57 -57 -6
46 -34 73 53 69 19 47 12
-11 24 -49 -24 31 52 -4 27
5 27 -7 -14 36 -10 17 23
-29 16 54 -36 1 -37 31 -88
1 67 -12 47 -3 12 23 -21
-70 36 -8 -6 -35 -24 -38 1
9 8 -38 -36 127 21 66 1
-17 10 53 1 42 9 -40 61
105 -17 -31 90 -8 13 -37 5
50 -8 21 2 -39 68 26 111
-107 5 -5 -15 -40 -70 -34 20
-54 11 6 -57 -73 -42 -30 7
-119 -3 -14 -67 -105 -36 32 12
-49 1 1 56 66 101 60 -39
28 -3 -62 -127 -14 8 59 -96
31 -38 16 -18 20 -55 -7 -58
110 -24 57 -41 -93 -19 -52 -10
61 -37 -31 -29 32 -84 17 -23
-12 -16 26 18 -4 20 13 -46
-120 -53 -5 -37 40 -106 -23 2
-25 9 -23 5 -23 -13 33 79
4 -1 -81 66 -8 -13 35 1
-2 15 108 80 -20 13 84 23
-23 78 -15 78 -54 6 25 -32
60 -40 1 -54 -91 21 -19 -39
-21 46 -48 2 27 -6 9 -99
73 -51 24 47 -12 -90 18 -49

std.constant9 i1 [128, 1, 1, 128]
00000000: 7fda e701 1c11 fd15 04de a0e4 fcf2 362f
00000010: e011 f6f8 10dd 11f5 662f 18bc ebf7 480a
00000020: fcdc e608 e70c 04df f312 ecfa f2fe fb4f
00000030: 3ce8 fbfc 2f21 e4d0 05fb f626 000d 19ff
00000040: 06c8 1226 fcbf b9ef dfed 1609 2ef3 f51f
00000050: f7c9 171f 08e4 f1f9 0b02 37dc 160f 072e
00000060: 150b 10f6 f8d3 e53f d909 0a0c e806 1ee4
00000070: 7e2c fbf7 f8e8 06ea f7df e3dc 0feb f7f3
00000080: 0404 f00d b5ed 20d5 fd0a 0c14 ee06 fff3
00000090: e008 e3c3 110d 72ac fa0b 0fff f309 04e1
000000a0: f7f2 d2f3 20fc e111 e9fd c7d8 f8f9 f965
000000b0: 1ce8 12f5 0607 0211 ff00 f0c3 fd2c 1afc
000000c0: f6de 7f05 11d6 fb29 fbff 2bac 23d2 f302
000000d0: d4fa fa1a eb06 efed 04dd 00c8 fcff e104
000000e0: f4df 0603 f610 15dc e00d 0fc0 f655 2ce3
000000f0: 1b03 f30c 0216 03e7 f0fa 12e7 ede2 fe07
127 -38 -25 1 28 17 -3 21
4 -34 -96 -28 -4 -14 54 47
-32 17 -10 -8 16 -35 17 -11
102 47 24 -68 -21 -9 72 10
-4 -36 -26 8 -25 12 4 -33
-13 18 -20 -6 -14 -2 -5 79
60 -24 -5 -4 47 33 -28 -48
5 -5 -10 38 0 13 25 -1
6 -56 18 38 -4 -65 -71 -17
-33 -19 22 9 46 -13 -11 31
-9 -55 23 31 8 -28 -15 -7
11 2 55 -36 22 15 7 46
21 11 16 -10 -8 -45 -27 63
-39 9 10 12 -24 6 30 -28
126 44 -5 -9 -8 -24 6 -22
-9 -33 -29 -36 15 -21 -9 -13
4 4 -16 13 -75 -19 32 -43
-3 10 12 20 -18 6 -1 -13
-32 8 -29 -61 17 13 114 -84
-6 11 15 -1 -13 9 4 -31
-9 -14 -46 -13 32 -4 -31 17
-23 -3 -57 -40 -8 -7 -7 101
28 -24 18 -11 6 7 2 17
-1 0 -16 -61 -3 44 26 -4
-10 -34 127 5 17 -42 -5 41
-5 -1 43 -84 35 -46 -13 2
-44 -6 -6 26 -21 6 -17 -19
4 -35 0 -56 -4 -1 -31 4
-12 -33 6 3 -10 16 21 -36
-32 13 15 -64 -10 85 44 -29
27 3 -13 12 2 22 3 -25
-16 -6 18 -25 -19 -30 -2 7

std.constant10 i1 [128, 1, 1, 128]
00000000: f6f2 dcff a544 2de9 0d19 202d d20d ceca
00000010: f90b 38f3 f23a 02f9 1500 09f5 1ffb d0f7
00000020: ce04 0b11 24ea 0a09 fa05 29ec 4df9 ecc6
00000030: 030f 0f04 05fc f2fc 0717 e3e1 15fe 1a0a
00000040: 020d fe0b f40b d107 9efa 10f8 ead6 ec19
00000050: 0d05 b43c 17e5 1cf6 fc16 faff 06fa 0de2
00000060: eafc f409 08fd eb1c 0106 29fc fef0 0d7f
00000070: f5dc 0a1c 17da 22f7 e8ca 1cf7 0d05 f31b
00000080: e609 e608 1cf6 e009 f7f0 2139 ff17 e57f
00000090: 093f f8f8 ead4 04ff 2bd5 ede8 06fe 1a0b
000000a0: fd13 fbff 0412 eefc f30f e108 def9 feef
000000b0: 2302 f116 e8fa d0d2 330f 1354 11f6 e218
000000c0: f514 1409 0fe9 da23 1cf3 f9e4 d61b 0c00
000000d0: 0ff1 fde9 d1f0 fc53 2dd2 f2ef 0fed f10a
000000e0: 1003 f622 2835 17f8 f9fd db33 08fb 3315
000000f0: f8eb eb37 0de1 cefe 08ee 17fe f7ea e5ed
-10 -14 -36 -1 -91 68 45 -23
13 25 32 45 -46 13 -50 -54
-7 11 56 -13 -14 58 2 -7
21 0 9 -11 31 -5 -48 -9
-50 4 11 17 36 -22 10 9
-6 5 41 -20 77 -7 -20 -58
3 15 15 4 5 -4 -14 -4
7 23 -29 -31 21 -2 26 10
2 13 -2 11 -12 11 -47 7
-98 -6 16 -8 -22 -42 -20 25
13 5 -76 60 23 -27 28 -10
-4 22 -6 -1 6 -6 13 -30
-22 -4 -12 9 8 -3 -21 28
1 6 41 -4 -2 -16 13 127
-11 -36 10 28 23 -38 34 -9
-24 -54 28 -9 13 5 -13 27
-26 9 -26 8 28 -10 -32 9
-9 -16 33 57 -1 23 -27 127
9 63 -8 -8 -22 -44 4 -1
43 -43 -19 -24 6 -2 26 11
-3 19 -5 -1 4 18 -18 -4
-13 15 -31 8 -34 -7 -2 -17
35 2 -15 22 -24 -6 -48 -46
51 15 19 84 17 -10 -30 24
-11 20 20 9 15 -23 -38 35
28 -13 -7 -28 -42 27 12 0
15 -15 -3 -23 -47 -16 -4 83
45 -46 -14 -17 15 -19 -15 10
16 3 -10 34 40 53 23 -8
-7 -3 -37 51 8 -5 51 21
-8 -21 -21 55 13 -31 -50 -2
8 -18 23 -2 -9 -22 -27 -19

std.constant11 i1 [128, 1, 1, 128]
00000000: 1e23 d4d6 faf2 39f4 d0e5 2521 fbe3 fe7f
00000010: 04cd d10a f401 f6f2 ffb6 17e5 ffe4 f900
00000020: cddd ee02 12ac f200 db16 f9e8 3613 0cf6
00000030: fde7 e8b5 d541 fe05 eae4 087a 23ff ff26
00000040: fcfe 0c12 2cf0 0ece 1ae0 ecef 3316 1df6
00000050: fa09 26f9 e3ef d3d3 410a e3f9 06fe 17f0
00000060: 021a 07f5 f6e3 160a ee15 f2d3 db09 eaf1
00000070: 1f04 dc12 22fe 0604 16e3 1221 01da 33f3
00000080: 664b f806 43e7 df47 3907 3c11 e7cc 2161
00000090: 20dc 164e 3ad7 ef30 db20 fcfd 1319 0d19
000000a0: f21d cce8 c241 db20 03ed e117 fd8a c61f
000000b0: 3416 122f 1e2e 33d4 ce63 e36d f42e 181f
000000c0: c7c6 f7f7 a114 e509 59b4 20c1 3d1e f5ef
000000d0: 10fb 31fd f9a9 850d 662c 221a 5802 19a8
000000e0: ca65 ba03 036f d4ea def3 00bd 21fd fafa
000000f0: 69f2 282a 057f daef 2a13 fae2 0fd1 35cd
30 35 -44 -42 -6 -14 57 -12
-48 -27 37 33 -5 -29 -2 127
4 -51 -47 10 -12 1 -10 -14
-1 -74 23 -27 -1 -28 -7 0
-51 -35 -18 2 18 -84 -14 0
-37 22 -7 -24 54 19 12 -10
-3 -25 -24 -75 -43 65 -2 5
-22 -28 8 122 35 -1 -1 38
-4 -2 12 18 44 -16 14 -50
26 -32 -20 -17 51 22 29 -10
-6 9 38 -7 -29 -17 -45 -45
65 10 -29 -7 6 -2 23 -16
2 26 7 -11 -10 -29 22 10
-18 21 -14 -45 -37 9 -22 -15
31 4 -36 18 34 -2 6 4
22 -29 18 33 1 -38 51 -13
102 75 -8 6 67 -25 -33 71
57 7 60 17 -25 -52 33 97
32 -36 22 78 58 -41 -17 48
-37 32 -4 -3 19 25 13 25
-14 29 -52 -24 -62 65 -37 32
3 -19 -31 23 -3 -118 -58 31
52 22 18 47 30 46 51 -44
-50 99 -29 109 -12 46 24 31
-57 -58 -9 -9 -95 20 -27 9
89 -76 32 -63 61 30 -11 -17
16 -5 49 -3 -7 -87 -123 13
102 44 34 26 88 2 25 -88
-54 101 -70 3 3 111 -44 -22
-34 -13 0 -67 33 -3 -6 -6
105 -14 40 42 5 127 -38 -17
42 19 -6 -30 15 -47 53 -51

std.constant12 i1 [256, 1, 1, 128]
00000000: 0ad7 f6f2 dcfb ff07 0deb 1e09 1d22 1134
00000010: f1fb 01ed 0219 f5ee 2010 0be7 0b01 0918
00000020: 1819 34fd 0011 0d15 0c10 eb15 00f6 fafe
00000030: 0af5 f90b 1309 f9f9 e012 f60b 040d fb02
00000040: f7fc 18f2 31eb 1cf8 ecf1 7f15 ee10 e1fc
00000050: fe12 ebf0 faf4 0d00 f7fa 061b f3fe ea2b
00000060: 16ee 1b0d f2f5 01ea fa10 e7f7 06fe 19f9
00000070: ebf8 0def 07e6 0d14 0f0d 111a fe0b 0c16
00000080: 1739 130b 22ec 21e9 07f1 1501 e8db fd04
00000090: 4e2f 10fd e81d dccf 0ab9 18cc f92c 30f4
000000a0: 3701 e6fc df2b 370f 36c5 6013 eaff f6f9
000000b0: e1bf 0829 d94f d0ff f81f d522 fc1c 0eef
000000c0: e7f2 eef8 fb12 e10c fdc5 f2e5 0fca 08c3
000000d0: 52e3 22b0 31e1 16ce bbe6 1f0c c330 def0
000000e0: cabe ff21 eef0 f0ea 1f1a 4017 07fe d40a
000000f0: e719 fd02 e205 f50e 2f7f 0705 1bf8 f211
10 -41 -10 -14 -36 -5 -1 7
13 -21 30 9 29 34 17 52
-15 -5 1 -19 2 25 -11 -18
32 16 11 -25 11 1 9 24
24 25 52 -3 0 17 13 21
12 16 -21 21 0 -10 -6 -2
10 -11 -7 11 19 9 -7 -7
-32 18 -10 11 4 13 -5 2
-9 -4 24 -14 49 -21 28 -8
-20 -15 127 21 -18 16 -31 -4
-2 18 -21 -16 -6 -12 13 0
-9 -6 6 27 -13 -2 -22 43
22 -18 27 13 -14 -11 1 -22
-6 16 -25 -9 6 -2 25 -7
-21 -8 13 -17 7 -26 13 20
15 13 17 26 -2 11 12 22
23 57 19 11 34 -20 33 -23
7 -15 21 1 -24 -37 -3 4
78 47 16 -3 -24 29 -36 -49
10 -71 24 -52 -7 44 48 -12
55 1 -26 -4 -33 43 55 15
54 -59 96 19 -22 -1 -10 -7
-31 -65 8 41 -39 79 -48 -1
-8 31 -43 34 -4 28 14 -17
-25 -14 -18 -8 -5 18 -31 12
-3 -59 -14 -27 15 -54 8 -61
82 -29 34 -80 49 -31 22 -50
-69 -26 31 12 -61 48 -34 -16
-54 -66 -1 33 -18 -16 -16 -22
31 26 64 23 7 -2 -44 10
-25 25 -3 2 -30 5 -11 14
47 127 7 5 27 -8 -14 17

std.constant13 i1 [256, 1, 1, 256]
00000000: f5da 29ff 35fd f208 05e2 10ea 25fb 91ec
00000010: 1d02 1702 a5e4 0323 19fd 2809 1856 cd2a
00000020: 2cd3 ebf4 e8f6 da14 4914 2fcc 23e4 260e
00000030: f0fe ec34 e1e1 09df 07e0 0ef6 17e7 0ef0
00000040: 1e21 ff0d 26d9 0311 0e00 fd89 e070 e8f7
00000050: f211 10f6 08bf 0f07 1335 d801 2df0 0a26
00000060: 13f4 07c1 b121 dcfb 3130 06f6 fcfa 0c81
00000070: d98d 21f7 07ed 001c 23e2 d2af ee03 1797
00000080: e4e1 f5c2 0bef 3023 233e 0d27 ee05 291c
00000090: ed1f cbd3 ebf2 dee9 b5e8 e501 d732 4e28
000000a0: 2102 eda3 0d1a fdee 0025 d2d7 cce0 eaf4
000000b0: e309 d703 1d21 0af2 e62f 0c23 0911 fe47
000000c0: 2b03 17fc c1f3 6301 19e2 43f3 fe16 fb10
000000d0: 3bf5 3641 f92b 15db e4c5 3cfa c525 f0fb
000000e0: 1807 3da1 e205 110c 13d3 baee fb19 030a
000000f0: 1cfc f5fd e1f3 c802 edd0 c8f0 ffe3 fd15
-11 -38 41 -1 53 -3 -14 8
5 -30 16 -22 37 -5 -111 -20
29 2 23 2 -91 -28 3 35
25 -3 40 9 24 86 -51 42
44 -45 -21 -12 -24 -10 -38 20
73 20 47 -52 35 -28 38 14
-16 -2 -20 52 -31 -31 9 -33
7 -32 14 -10 23 -25 14 -16
30 33 -1 13 38 -39 3 17
14 0 -3 -119 -32 112 -24 -9
-14 17 16 -10 8 -65 15 7
19 53 -40 1 45 -16 10 38
19 -12 7 -63 -79 33 -36 -5
49 48 6 -10 -4 -6 12 -127
-39 -115 33 -9 7 -19 0 28
35 -30 -46 -81 -18 3 23 -105
-28 -31 -11 -62 11 -17 48 35
35 62 13 39 -18 5 41 28
-19 31 -53 -45 -21 -14 -34 -23
-75 -24 -27 1 -41 50 78 40
33 2 -19 -93 13 26 -3 -18
0 37 -46 -41 -52 -32 -22 -12
-29 9 -41 3 29 33 10 -14
-26 47 12 35 9 17 -2 71
43 3 23 -4 -63 -13 99 1
25 -30 67 -13 -2 22 -5 16
59 -11 54 65 -7 43 21 -37
-28 -59 60 -6 -59 37 -16 -5
24 7 61 -95 -30 5 17 12
19 -45 -70 -18 -5 25 3 10
28 -4 -11 -3 -31 -13 -56 2
-19 -48 -56 -16 -1 -29 -3 21

std.constant15 i1 [1, 3, 3, 8]
00000000: e7fd ee02 cec2 f13a 7f06 c7f7 16dc ffa7
00000010: e4fd ed08 03ef 7fd3 eeec bcf7 7f7b fe05
00000020: e57f 221a eb5f c800 de0e 0f7f cf81 d61c
00000030: 030b 7f03 32c9 067a feec 4ffb 05b0 fb67
00000040: 0301 fddb ed8f fb7f
-25 -3 -18 2 -50 -62 -15 58
127 6 -57 -9 22 -36 -1 -89
-28 -3 -19 8 3 -17 127 -45
-18 -20 -68 -9 127 123 -2 5
-27 127 34 26 -21 95 -56 0
-34 14 15 127 -49 -127 -42 28
3 11 127 3 50 -55 6 122
-2 -20 79 -5 5 -80 -5 103
3 1 -3 -37 -19 -113 -5 127

std.constant17 i1 [1, 3, 3, 16]
00000000: f9ae 5521 d2e6 d6f2 c309 8108 238d 1da1
00000010: fbe9 8143 81a9 941e 7f7f a7b2 6cc1 040a
00000020: 11d9 131d a2e0 de21 d95e f0ab 100a f3f7
00000030: 0f79 41be d981 3e53 bc12 bafd e681 b97f
00000040: 8129 d581 b0a1 7f4c 695b ba04 bcd4 0cf0
00000050: 0d81 00d1 d7e7 2e51 d645 f1b3 e425 b6d4
00000060: 2bd5 041e 39ba e374 f2fa 0fbc d610 126b
00000070: 03f7 1241 16b2 ed7f 10e8 fc81 8109 7fef
00000080: 2d17 ec0d 2ecc f85c f7ec f7ac d4e9 fcd3
-7 -82 85 33 -46 -26 -42 -14
-61 9 -127 8 35 -115 29 -95
-5 -23 -127 67 -127 -87 -108 30
127 127 -89 -78 108 -63 4 10
17 -39 19 29 -94 -32 -34 33
-39 94 -16 -85 16 10 -13 -9
15 121 65 -66 -39 -127 62 83
-68 18 -70 -3 -26 -127 -71 127
-127 41 -43 -127 -80 -95 127 76
105 91 -70 4 -68 -44 12 -16
13 -127 0 -47 -41 -25 46 81
-42 69 -15 -77 -28 37 -74 -44
43 -43 4 30 57 -70 -29 116
-14 -6 15 -68 -42 16 18 107
3 -9 18 65 22 -78 -19 127
16 -24 -4 -127 -127 9 127 -17
45 23 -20 13 46 -52 -8 92
-9 -20 -9 -84 -44 -23 -4 -45

std.constant19 i1 [1, 3, 3, 32]
00000000: 1399 7ffd 917f 0499 4dde 0305 a9dd 81e8
00000010: 6199 8176 cff8 fe81 f219 dba4 7fea 7f81
00000020: d6d4 c3ff 5a64 0b71 7ff9 7ffa 7fde e11d
00000030: e505 6881 40ff 027f 02d9 81c6 62fe a0d2
00000040: 1458 fc00 08f9 fcf6 71ce 1701 03f9 03fa
00000050: e601 1006 d806 ff10 fe03 0116 f703 f602
00000060: 7f81 1281 7f42 ef6d 027f f87f 6259 2381
00000070: 7f7f 619c 7f81 812f b27f 297f 0a22 975b
00000080: 81ef eefb 4932 8181 0241 99f8 797f 1e7c
00000090: 59fa b266 341b e8da 7f91 61f5 137f 5328
000000a0: 0038 fc00 11e4 1308 52cd f202 fef6 0403
000000b0: 1c00 f2fd ec66 00ed faf3 08cc e5d8 0302
000000c0: f3eb ffec c9f2 09f0 103e 030f d106 0ff5
000000d0: 35f0 0ce8 fef2 f412 f20c fded fdf1 ee1c
000000e0: 13ec 0000 bcf7 ff0d e434 ed00 b30c 0014
000000f0: f6f7 f119 2308 00f0 0efc 19f2 faee 0bfb
19 -103 127 -3 -111 127 4 -103
77 -34 3 5 -87 -35 -127 -24
97 -103 -127 118 -49 -8 -2 -127
-14 25 -37 -92 127 -22 127 -127
-42 -44 -61 -1 90 100 11 113
127 -7 127 -6 127 -34 -31 29
-27 5 104 -127 64 -1 2 127
2 -39 -127 -58 98 -2 -96 -46
20 88 -4 0 8 -7 -4 -10
113 -50 23 1 3 -7 3 -6
-26 1 16 6 -40 6 -1 16
-2 3 1 22 -9 3 -10 2
127 -127 18 -127 127 66 -17 109
2 127 -8 127 98 89 35 -127
127 127 97 -100 127 -127 -127 47
-78 127 41 127 10 34 -105 91
-127 -17 -18 -5 73 50 -127 -127
2 65 -103 -8 121 127 30 124
89 -6 -78 102 52 27 -24 -38
127 -111 97 -11 19 127 83 40
0 56 -4 0 17 -28 19 8
82 -51 -14 2 -2 -10 4 3
28 0 -14 -3 -20 102 0 -19
-6 -13 8 -52 -27 -40 3 2
-13 -21 -1 -20 -55 -14 9 -16
16 62 3 15 -47 6 15 -11
53 -16 12 -24 -2 -14 -12 18
-14 12 -3 -19 -3 -15 -18 28
19 -20 0 0 -68 -9 -1 13
-28 52 -19 0 -77 12 0 20
-10 -9 -15 25 35 8 0 -16
14 -4 25 -14 -6 -18 11 -5

std.constant21 i1 [1, 3, 3, 32]
00000000: abb3 29da 2bc7 db39 50cc 4a35 d018 b72b
00000010: 2ad4 d540 c923 d3c3 21b7 ce3d f208 d825
00000020: 8181 4848 42b2 b44d 619a 6c53 ba61 d542
00000030: b6bb b262 a152 b7b6 4c50 ae46 99ee c14f
00000040: d3c6 1fd9 17e4 d721 29c2 3429 df48 121a
00000050: f1d8 db21 ce33 e0e9 32f1 d313 0a7f e82b
00000060: 45f2 57b3 4aa8 a749 68c0 5d51 a317 8152
00000070: 4fb7 ba54 c349 bbab 488e b353 e9eb aa41
00000080: 7ffb 7f7f 7f81 817f 7f81 7f7f 817f 9d7f
00000090: 8181 817f 817f 8181 7f7f 817f 81be 817f
000000a0: 62f9 37ba 3dd0 c549 33af 353a bc68 2b3c
000000b0: f1bf c129 b143 b6c9 47e0 be3a 047c d053
000000c0: 062a 30e0 22db c81f 25e8 1e25 cf01 cf21
000000d0: 23db e320 e625 e1e1 2dd1 e21d 1309 d220
000000e0: 163e 3e41 46cd bb44 2dd2 243a b92e c13a
000000f0: c3c3 cb34 c935 bcbf 4031 c743 e9e7 bb40
-85 -77 41 -38 43 -57 -37 57
80 -52 74 53 -48 24 -73 43
42 -44 -43 64 -55 35 -45 -61
33 -73 -50 61 -14 8 -40 37
-127 -127 72 72 66 -78 -76 77
97 -102 108 83 -70 97 -43 66
-74 -69 -78 98 -95 82 -73 -74
76 80 -82 70 -103 -18 -63 79
-45 -58 31 -39 23 -28 -41 33
41 -62 52 41 -33 72 18 26
-15 -40 -37 33 -50 51 -32 -23
50 -15 -45 19 10 127 -24 43
69 -14 87 -77 74 -88 -89 73
104 -64 93 81 -93 23 -127 82
79 -73 -70 84 -61 73 -69 -85
72 -114 -77 83 -23 -21 -86 65
127 -5 127 127 127 -127 -127 127
127 -127 127 127 -127 127 -99 127
-127 -127 -127 127 -127 127 -127 -127
127 127 -127 127 -127 -66 -127 127
98 -7 55 -70 61 -48 -59 73
51 -81 53 58 -68 104 43 60
-15 -65 -63 41 -79 67 -74 -55
71 -32 -66 58 4 124 -48 83
6 42 48 -32 34 -37 -56 31
37 -24 30 37 -49 1 -49 33
35 -37 -29 32 -26 37 -31 -31
45 -47 -30 29 19 9 -46 32
22 62 62 65 70 -51 -69 68
45 -46 36 58 -71 46 -63 58
-61 -61 -53 52 -55 53 -68 -65
64 49 -57 67 -23 -25 -69 64

std.constant23 i1 [1, 3, 3, 64]
00000000: dfe5 0f01 1e20 0002 07e4 0418 f3fa f5f4
00000010: f8fa e203 e9b4 fc08 f5d6 fc09 ed7f f20b
00000020: 0212 f114 c90c 1612 eff8 240e 0001 00f0
00000030: 1f04 3801 06f1 f703 fa48 ad0d eb1b 3109
00000040: 5e10 eafc 7fea f9ff 08fa f1fe 07f8 1b07
00000050: 02f9 fc3f 0cff f500 1ea4 fde7 20f5 cb3c
00000060: 1b7f 3be1 7f81 cd7f 0fc7 f7dd fde3 1a09
00000070: d9e3 7fcd 4c05 def7 fff5 6c41 e76c bcfa
00000080: e50e fbfc 0afd fdfa f212 04ed 05fb fb1b
00000090: f806 def8 0192 fff9 f1cd 0105 14a1 fd03
000000a0: f211 ed08 f01d 1513 04f9 d90d f50e 01fc
000000b0: 0009 1c05 ff01 fff4 f3d3 0d0e 0202 10fe
000000c0: 9a7f 72fe ccfd fa08 8185 f990 8bc0 0e00
000000d0: 088e fb13 a881 fd07 0ff3 00e0 fe0a 02e3
000000e0: fdf0 34eb 6222 7f95 810b b2e4 b1e3 fd13
000000f0: 6bdb 20f6 2806 ed12 04da 7fde f7bc be7f
-33 -27 15 1 30 32 0 2
7 -28 4 24 -13 -6 -11 -12
-8 -6 -30 3 -23 -76 -4 8
-11 -42 -4 9 -19 127 -14 11
2 18 -15 20 -55 12 22 18
-17 -8 36 14 0 1 0 -16
31 4 56 1 6 -15 -9 3
-6 72 -83 13 -21 27 49 9
94 16 -22 -4 127 -22 -7 -1
8 -6 -15 -2 7 -8 27 7
2 -7 -4 63 12 -1 -11 0
30 -92 -3 -25 32 -11 -53 60
27 127 59 -31 127 -127 -51 127
15 -57 -9 -35 -3 -29 26 9
-39 -29 127 -51 76 5 -34 -9
-1 -11 108 65 -25 108 -68 -6
-27 14 -5 -4 10 -3 -3 -6
-14 18 4 -19 5 -5 -5 27
-8 6 -34 -8 1 -110 -1 -7
-15 -51 1 5 20 -95 -3 3
-14 17 -19 8 -16 29 21 19
4 -7 -39 13 -11 14 1 -4
0 9 28 5 -1 1 -1 -12
-13 -45 13 14 2 2 16 -2
-102 127 114 -2 -52 -3 -6 8
-127 -123 -7 -112 -117 -64 14 0
8 -114 -5 19 -88 -127 -3 7
15 -13 0 -32 -2 10 2 -29
-3 -16 52 -21 98 34 127 -107
-127 11 -78 -28 -79 -29 -3 19
107 -37 32 -10 40 6 -19 18
4 -38 127 -34 -9 -68 -66 127

std.constant25 i1 [1, 3, 3, 64]
00000000: 48c4 3bd2 3dc5 bb37 b92d 58be ba4b 4146
00000010: b93c 44bb b244 ca42 c23d 47ba a62a 4640
00000020: d93c c0c9 3d3a 5637 4134 b83e 44bc cf35
00000030: 4b38 383c 3ab1 3b7f 6a4c b7bf 3c6f 30bc
00000040: 5aab 4fb5 6023 a356 a63b 74ae a1d6 5057
00000050: a65d 5aa1 8163 ab59 b055 5c9d 9b5c 6b53
00000060: 5c52 a9aa 5a59 6554 5c5c 985f 5b13 9f4e
00000070: 5f61 4b60 5f9b 52da 7f63 9ea2 59b3 49a5
00000080: 20dc 22dc 335d df2d d91d 46de ddc5 2622
00000090: d836 28d6 b129 ce21 db25 24c9 d63a 3023
000000a0: b327 dddb 2a2b 2023 2834 cf29 242f ca24
000000b0: 243e 222a 33da 27ad 402b d6d5 2edf 20d7
000000c0: 61a8 5baf 4d81 9d56 a25f 21a4 9e7f 5a69
000000d0: a154 609e 4a58 b35f 9e5d 63a7 903c 5f5e
000000e0: b85c a2a9 5657 5d52 574b 9559 5dc3 bf54
000000f0: 6751 5953 529f 577f d458 a8a2 527f 59a7
72 -60 59 -46 61 -59 -69 55
-71 45 88 -66 -70 75 65 70
-71 60 68 -69 -78 68 -54 66
-62 61 71 -70 -90 42 70 64
-39 60 -64 -55 61 58 86 55
65 52 -72 62 68 -68 -49 53
75 56 56 60 58 -79 59 127
106 76 -73 -65 60 111 48 -68
90 -85 79 -75 96 35 -93 86
-90 59 116 -82 -95 -42 80 87
-90 93 90 -95 -127 99 -85 89
-80 85 92 -99 -101 92 107 83
92 82 -87 -86 90 89 101 84
92 92 -104 95 91 19 -97 78
95 97 75 96 95 -101 82 -38
127 99 -98 -94 89 -77 73 -91
32 -36 34 -36 51 93 -33 45
-39 29 70 -34 -35 -59 38 34
-40 54 40 -42 -79 41 -50 33
-37 37 36 -55 -42 58 48 35
-77 39 -35 -37 42 43 32 35
40 52 -49 41 36 47 -54 36
36 62 34 42 51 -38 39 -83
64 43 -42 -43 46 -33 32 -41
97 -88 91 -81 77 -127 -99 86
-94 95 33 -92 -98 127 90 105
-95 84 96 -98 74 88 -77 95
-98 93 99 -89 -112 60 95 94
-72 92 -94 -87 86 87 93 82
87 75 -107 89 93 -61 -65 84
103 81 89 83 82 -97 87 127
-44 88 -88 -94 82 127 89 -89

std.constant27 i1 [1, 3, 3, 128]
00000000: fd0e 0df9 05e9 00fa f6fc 080d 4c07 00fd
00000010: 06ff fcf3 0801 0205 e5fd f909 e007 0806
00000020: f500 0cf9 01fb fe00 c9fc faf3 f8f9 05fa
00000030: 0d05 2706 e804 fbf8 0b0b f88a 030d fd05
00000040: ee0b f8ff 190a 1b05 06f4 f70b 0aed ecf5
00000050: e80f f40a 1823 f5f1 f502 0def 050c 08fb
00000060: fa16 0c05 0103 fdfe 85fe 0bfc 0209 0af4
00000070: 08ff fae6 28fb 09fe e6d1 e510 0809 13fb
00000080: e9a4 1ed1 9bd2 f901 fa09 ee7f e4ec 7f01
00000090: 01c8 0001 160a e1fa 0516 e8e7 8c09 f6f4
000000a0: 810e b43e 2c19 04f6 8106 0ce1 de0f ddee
000000b0: 0ceb 7ff1 fef3 f2cf 1ef8 e843 a6f3 f915
000000c0: 817f 14f7 2018 6cfa 01db e57f ea90 18ed
000000d0: 067f ea18 7f1a 0e8a e518 0609 f52f 47e2
000000e0: 2c1a fc22 00ff eb23 391c f9e5 0e01 f002
000000f0: e5f4 e0c1 7fec 07ef eb81 c79b 7f7f 21f4
-3 14 13 -7 5 -23 0 -6
-10 -4 8 13 76 7 0 -3
6 -1 -4 -13 8 1 2 5
-27 -3 -7 9 -32 7 8 6
-11 0 12 -7 1 -5 -2 0
-55 -4 -6 -13 -8 -7 5 -6
13 5 39 6 -24 4 -5 -8
11 11 -8 -118 3 13 -3 5
-18 11 -8 -1 25 10 27 5
6 -12 -9 11 10 -19 -20 -11
-24 15 -12 10 24 35 -11 -15
-11 2 13 -17 5 12 8 -5
-6 22 12 5 1 3 -3 -2
-123 -2 11 -4 2 9 10 -12
8 -1 -6 -26 40 -5 9 -2
-26 -47 -27 16 8 9 19 -5
-23 -92 30 -47 -101 -46 -7 1
-6 9 -18 127 -28 -20 127 1
1 -56 0 1 22 10 -31 -6
5 22 -24 -25 -116 9 -10 -12
-127 14 -76 62 44 25 4 -10
-127 6 12 -31 -34 15 -35 -18
12 -21 127 -15 -2 -13 -14 -49
30 -8 -24 67 -90 -13 -7 21
-127 127 20 -9 32 24 108 -6
1 -37 -27 127 -22 -112 24 -19
6 127 -22 24 127 26 14 -118
-27 24 6 9 -11 47 71 -30
44 26 -4 34 0 -1 -21 35
57 28 -7 -27 14 1 -16 2
-27 -12 -32 -63 127 -20 7 -17
-21 -127 -57 -101 127 127 33 -12

std.constant29 i1 [1, 3, 3, 128]
00000000: 87ff 03fb 04db 2229 01ef 5fdc 151c 00fd
00000010: 04fb 0b22 d7f9 05ec f00a f8f9 6d14 f711
00000020: 2c01 00fe 16f8 0212 1ef9 ffe4 ff12 0ef4
00000030: 0903 16f7 de10 1202 ec0a 06f8 fb01 32ff
00000040: 0441 060a 1a09 060b 0b09 1141 d72c e300
00000050: fefe f908 01a1 f9fa 0ff8 e6f9 2627 070e
00000060: 0cfa fbf9 f041 2411 f45e fafe 1f16 2afd
00000070: f2f3 0949 fb09 fefe 09dc ff14 090e e80b
00000080: f2fd 0aef b0de 8d2e fbec 4896 202f f70c
00000090: 15db 0fed ef15 02f8 da05 d3f9 1611 0ef7
000000a0: 7f11 f406 2f06 d87f 59da fbd7 d4c7 7ffd
000000b0: 7ffb 0419 a20f fcad 1a06 f6f0 1106 7f06
000000c0: 0005 00f3 7f22 0d3c 210e 7c0b e622 9606
000000d0: f1fa ecf2 0881 e903 0804 83fb 329c f8f1
000000e0: 17f1 fafe d334 2a12 cfb8 e9fc 077f 7f87
000000f0: f1c5 0014 f31b eeea 0ad8 f47f 07e3 fb04
-121 -1 3 -5 4 -37 34 41
1 -17 95 -36 21 28 0 -3
4 -5 11 34 -41 -7 5 -20
-16 10 -8 -7 109 20 -9 17
44 1 0 -2 22 -8 2 18
30 -7 -1 -28 -1 18 14 -12
9 3 22 -9 -34 16 18 2
-20 10 6 -8 -5 1 50 -1
4 65 6 10 26 9 6 11
11 9 17 65 -41 44 -29 0
-2 -2 -7 8 1 -95 -7 -6
15 -8 -26 -7 38 39 7 14
12 -6 -5 -7 -16 65 36 17
-12 94 -6 -2 31 22 42 -3
-14 -13 9 73 -5 9 -2 -2
9 -36 -1 20 9 14 -24 11
-14 -3 10 -17 -80 -34 -115 46
-5 -20 72 -106 32 47 -9 12
21 -37 15 -19 -17 21 2 -8
-38 5 -45 -7 22 17 14 -9
127 17 -12 6 47 6 -40 127
89 -38 -5 -41 -44 -57 127 -3
127 -5 4 25 -94 15 -4 -83
26 6 -10 -16 17 6 127 6
0 5 0 -13 127 34 13 60
33 14 124 11 -26 34 -106 6
-15 -6 -20 -14 8 -127 -23 3
8 4 -125 -5 50 -100 -8 -15
23 -15 -6 -2 -45 52 42 18
-49 -72 -23 -4 7 127 127 -121
-15 -59 0 20 -13 27 -18 -22
10 -40 -12 127 7 -29 -5 4

std.constant31 i1 [1, 3, 3, 128]
00000000: fc0e c8b0 ff00 0ffd 1d1d 01ef 4511 ecfb
00000010: 09f9 08fc c8f2 18f7 1503 b0f0 13f7 e10d
00000020: 7ffe 0923 09cc 2009 ec06 0fe4 0502 f109
00000030: 12ce f80b fd0d 09f9 fe06 1101 0419 281c
00000040: 14e4 00b7 0e01 1e18 21d0 03fa fe26 1681
00000050: 74de 0b2e 0e03 f90f da09 07f9 e80c 0105
00000060: f8ff 10a4 0300 0011 f71c 1204 a3da 0c73
00000070: 0afc 0de7 bfec 7f07 03fa 3dfd f00c d2f9
00000080: f237 0ed4 fee5 2705 3c02 f481 7f7f 1709
00000090: 21e9 20e4 bd01 ecb7 f502 cd7f eed4 1f27
000000a0: 15d9 e8ed e626 1d3f ac09 7fc9 f021 7ff0
000000b0: f10d d6ff f8f8 1bf6 0bfe 031f 0335 7fd0
000000c0: 18e8 089a 1cff 642f 7fd0 14e8 fe7f f714
000000d0: 4bd0 080d 2c1c 0806 810d dfe7 810e e916
000000e0: 02f7 1d8d 1a08 ef0f 172a 2c1c 8cd0 1300
000000f0: 1122 52e2 8eee 11e9 29d8 d9ec d320 c8f1
-4 14 -56 -80 -1 0 15 -3
29 29 1 -17 69 17 -20 -5
9 -7 8 -4 -56 -14 24 -9
21 3 -80 -16 19 -9 -31 13
127 -2 9 35 9 -52 32 9
-20 6 15 -28 5 2 -15 9
18 -50 -8 11 -3 13 9 -7
-2 6 17 1 4 25 40 28
20 -28 0 -73 14 1 30 24
33 -48 3 -6 -2 38 22 -127
116 -34 11 46 14 3 -7 15
-38 9 7 -7 -24 12 1 5
-8 -1 16 -92 3 0 0 17
-9 28 18 4 -93 -38 12 115
10 -4 13 -25 -65 -20 127 7
3 -6 61 -3 -16 12 -46 -7
-14 55 14 -44 -2 -27 39 5
60 2 -12 -127 127 127 23 9
33 -23 32 -28 -67 1 -20 -73
-11 2 -51 127 -18 -44 31 39
21 -39 -24 -19 -26 38 29 63
-84 9 127 -55 -16 33 127 -16
-15 13 -42 -1 -8 -8 27 -10
11 -2 3 31 3 53 127 -48
24 -24 8 -102 28 -1 100 47
127 -48 20 -24 -2 127 -9 20
75 -48 8 13 44 28 8 6
-127 13 -33 -25 -127 14 -23 22
2 -9 29 -115 26 8 -17 15
23 42 44 28 -116 -48 19 0
17 34 82 -30 -114 -18 17 -23
41 -40 -39 -20 -45 32 -56 -15

std.constant33 i1 [1, 3, 3, 128]
00000000: 1600 010e 0405 fa01 2102 fbf9 02e4 0605
00000010: 10e9 f00f f5fe 2304 09fe 8101 d4f8 0736
00000020: fa0a d0fa 1fb1 e105 0b2e e812 ff7b 7afb
00000030: f9f6 7f0d 7902 fc0f 020a fd00 01c1 fc4e
00000040: 03a5 faf3 0bd5 062b fff8 e001 4327 e0bd
00000050: 1507 f7c0 0206 c9f2 f8b8 0fed e9fc d8bd
00000060: 1bf0 0204 eafc fd0e 0f07 fef5 1bfd ddfb
00000070: f206 9ceb 03fb ef48 dc37 040a ee32 195e
00000080: 1ff7 10ec fe05 06f6 05ea ea04 fec6 f30f
00000090: e7c7 9b5d 4908 f201 7fdc 92dd cc20 e745
000000a0: f27f 222a 7f04 6ffa b5ff 9229 f866 41c1
000000b0: ffee 1dea d27d e0ff e515 f1e7 0581 f2fc
000000c0: 0a0b ecec 1ef1 0941 f9fe 284b 7f1b b9e6
000000d0: c911 f099 0008 3f0d fd81 6054 bed4 2d10
000000e0: 5df3 08ec b081 e7e6 7ff3 08fe eb81 9dfb
000000f0: fd16 7ff1 cf7f de14 9762 167f 07be 2a51
22 0 1 14 4 5 -6 1
33 2 -5 -7 2 -28 6 5
16 -23 -16 15 -11 -2 35 4
9 -2 -127 1 -44 -8 7 54
-6 10 -48 -6 31 -79 -31 5
11 46 -24 18 -1 123 122 -5
-7 -10 127 13 121 2 -4 15
2 10 -3 0 1 -63 -4 78
3 -91 -6 -13 11 -43 6 43
-1 -8 -32 1 67 39 -32 -67
21 7 -9 -64 2 6 -55 -14
-8 -72 15 -19 -23 -4 -40 -67
27 -16 2 4 -22 -4 -3 14
15 7 -2 -11 27 -3 -35 -5
-14 6 -100 -21 3 -5 -17 72
-36 55 4 10 -18 50 25 94
31 -9 16 -20 -2 5 6 -10
5 -22 -22 4 -2 -58 -13 15
-25 -57 -101 93 73 8 -14 1
127 -36 -110 -35 -52 32 -25 69
-14 127 34 42 127 4 111 -6
-75 -1 -110 41 -8 102 65 -63
-1 -18 29 -22 -46 125 -32 -1
-27 21 -15 -25 5 -127 -14 -4
10 11 -20 -20 30 -15 9 65
-7 -2 40 75 127 27 -71 -26
-55 17 -16 -103 0 8 63 13
-3 -127 96 84 -66 -44 45 16
93 -13 8 -20 -80 -127 -25 -26
127 -13 8 -2 -21 -127 -99 -5
-3 22 127 -15 -49 127 -34 20
-105 98 22 127 7 -66 42 81

std.constant35 i1 [1, 3, 3, 128]
00000000: 18ba 1809 e723 f30b f3f8 81b4 1512 5203
00000010: 2bed 121b 920b 17e7 050f 811d a41e eff7
00000020: fff1 eb24 b3d6 10f3 301c 21cd b9ed e332
00000030: 2c29 faf6 1203 bb12 110f f9ff 0f62 b06e
00000040: 0713 e71e 0123 e8cf 81dd 5406 0b40 f90a
00000050: 2a01 2433 1e05 1306 b535 ddfa 45dc 0b14
00000060: a2ae ea1d 04ee e500 5d10 1e0b f039 043b
00000070: cbf8 a707 c106 da26 050d 2dd2 fea3 0421
00000080: 4fa1 2e2f e02e da36 bcb7 9381 7f0b 760c
00000090: 7fdd 257f 9f36 87e4 2823 ce2b 8163 d40b
000000a0: 0bd7 c336 ce9a 4a55 2347 70f1 9dda cb58
000000b0: 7f60 dfe4 2d23 c550 461c e823 2c13 d31c
000000c0: 1553 d525 f17f a7aa 15f7 7ff7 217f e128
000000d0: 7ff7 6d7d 211f f51e b566 d91a 6e81 c43b
000000e0: 8182 c57f 32bd cbef 7f31 7f28 e550 0d58
000000f0: b626 815f 8114 e7c8 1304 81a5 f2e2 17fc
24 -70 24 9 -25 35 -13 11
-13 -8 -127 -76 21 18 82 3
43 -19 18 27 -110 11 23 -25
5 15 -127 29 -92 30 -17 -9
-1 -15 -21 36 -77 -42 16 -13
48 28 33 -51 -71 -19 -29 50
44 41 -6 -10 18 3 -69 18
17 15 -7 -1 15 98 -80 110
7 19 -25 30 1 35 -24 -49
-127 -35 84 6 11 64 -7 10
42 1 36 51 30 5 19 6
-75 53 -35 -6 69 -36 11 20
-94 -82 -22 29 4 -18 -27 0
93 16 30 11 -16 57 4 59
-53 -8 -89 7 -63 6 -38 38
5 13 45 -46 -2 -93 4 33
79 -95 46 47 -32 46 -38 54
-68 -73 -109 -127 127 11 118 12
127 -35 37 127 -97 54 -121 -28
40 35 -50 43 -127 99 -44 11
11 -41 -61 54 -50 -102 74 85
35 71 112 -15 -99 -38 -53 88
127 96 -33 -28 45 35 -59 80
70 28 -24 35 44 19 -45 28
21 83 -43 37 -15 127 -89 -86
21 -9 127 -9 33 127 -31 40
127 -9 109 125 33 31 -11 30
-75 102 -39 26 110 -127 -60 59
-127 -126 -59 127 50 -67 -53 -17
127 49 127 40 -27 80 13 88
-74 38 -127 95 -127 20 -25 -56
19 4 -127 -91 -14 -30 23 -4

std.constant37 i1 [1, 3, 3, 128]
00000000: 4745 9092 2241 c7c0 4a4b bab6 bc45 4dcf
00000010: 304e 3981 c24c ba41 3ab4 bdbf a25c bf43
00000020: bf43 4222 3750 4cb9 b1af bf45 9f44 4192
00000030: c5b0 4a45 cc44 4d50 3f46 c6ae aac1 04bf
00000040: b995 c4b7 48c4 43ba 47b8 3c51 ba45 4d4a
00000050: b7b1 b4b8 bfc7 ba4d beb9 4048 c79b 44ba
00000060: b24b aa4a 48c0 a445 4cc2 c04a 464a 3e3c
00000070: b8bf b9a6 444b 3e3b af45 a8c4 c54b af65
00000080: 5c58 8181 3956 b2a8 6364 a99a a754 61bc
00000090: 3267 478a ad63 a05c 4ca0 a4a8 9074 a759
000000a0: a958 5225 4c63 64a3 9a93 a95e 935b 5581
000000b0: b29a 585a b658 6462 5259 b199 8ea9 05ab
000000c0: a381 b29d 60ac 58a3 5a9e 4e58 a760 635f
000000d0: a09a 9d9e abb5 a561 a5a5 555c b281 57a3
000000e0: 9c5e 8e5e 5aaa 8f59 63ab aa5b 5c61 5551
000000f0: a0a9 9f91 5a61 5054 9d5f 90ad b15e a07f
71 69 -112 -110 34 65 -57 -64
74 75 -70 -74 -68 69 77 -49
48 78 57 -127 -62 76 -70 65
58 -76 -67 -65 -94 92 -65 67
-65 67 66 34 55 80 76 -71
-79 -81 -65 69 -97 68 65 -110
-59 -80 74 69 -52 68 77 80
63 70 -58 -82 -86 -63 4 -65
-71 -107 -60 -73 72 -60 67 -70
71 -72 60 81 -70 69 77 74
-73 -79 -76 -72 -65 -57 -70 77
-66 -71 64 72 -57 -101 68 -70
-78 75 -86 74 72 -64 -92 69
76 -62 -64 74 70 74 62 60
-72 -65 -71 -90 68 75 62 59
-81 69 -88 -60 -59 75 -81 101
92 88 -127 -127 57 86 -78 -88
99 100 -87 -102 -89 84 97 -68
50 103 71 -118 -83 99 -96 92
76 -96 -92 -88 -112 116 -89 89
-87 88 82 37 76 99 100 -93
-102 -109 -87 94 -109 91 85 -127
-78 -102 88 90 -74 88 100 98
82 89 -79 -103 -114 -87 5 -85
-93 -127 -78 -99 96 -84 88 -93
90 -98 78 88 -89 96 99 95
-96 -102 -99 -98 -85 -75 -91 97
-91 -91 85 92 -78 -127 87 -93
-100 94 -114 94 90 -86 -113 89
99 -85 -86 91 92 97 85 81
-96 -87 -97 -111 90 97 80 84
-99 95 -112 -83 -79 94 -96 127

std.constant39 i1 [1, 3, 3, 256]
00000000: 812d ebc2 727f 83c5 56d2 957f 3881 602d
00000010: 4b81 ae25 7ffe 7f81 7fd4 81b6 7f92 8138
00000020: 813c f569 3959 adf6 ba85 5f81 e736 7f7f
00000030: 81d4 8c81 eb85 487f 812b 7f7f ba6b 81bf
00000040: 7f7b 7f9e 6b75 266a 815e a9c5 7f7e d27f
00000050: 937f 7c9b 81b0 81a5 ec0d d69a c281 a76d
00000060: 7034 06f7 7fc7 7d76 2543 be9a ad16 81f0
00000070: a781 457f d993 887f 817f 3f7f 817f 7f81
00000080: ae81 8184 375b af8f c881 7f81 8171 847f
00000090: 7f81 5a5e 7fa1 8181 7f81 ec81 ad81 817f
000000a0: 2c7f 0f0f 7f7c 817f 27dd e74f 7f93 b781
000000b0: 7fcd d47f 8181 087f 887f 567f 4152 e2cd
000000c0: 5595 7f67 a472 8181 7f7f 9a7f e5e3 f97f
000000d0: 5916 b2a5 3d78 7f7f 3002 83e2 5627 366c
000000e0: 9f97 7691 9a7f 267c 7f81 de52 cb5e 8637
000000f0: 77a0 917f 7fc0 897a 815d 7f7f 7f81 a42d
-127 45 -21 -62 114 127 -125 -59
86 -46 -107 127 56 -127 96 45
75 -127 -82 37 127 -2 127 -127
127 -44 -127 -74 127 -110 -127 56
-127 60 -11 105 57 89 -83 -10
-70 -123 95 -127 -25 54 127 127
-127 -44 -116 -127 -21 -123 72 127
-127 43 127 127 -70 107 -127 -65
127 123 127 -98 107 117 38 106
-127 94 -87 -59 127 126 -46 127
-109 127 124 -101 -127 -80 -127 -91
-20 13 -42 -102 -62 -127 -89 109
112 52 6 -9 127 -57 125 118
37 67 -66 -102 -83 22 -127 -16
-89 -127 69 127 -39 -109 -120 127
-127 127 63 127 -127 127 127 -127
-82 -127 -127 -124 55 91 -81 -113
-56 -127 127 -127 -127 113 -124 127
127 -127 90 94 127 -95 -127 -127
127 -127 -20 -127 -83 -127 -127 127
44 127 15 15 127 124 -127 127
39 -35 -25 79 127 -109 -73 -127
127 -51 -44 127 -127 -127 8 127
-120 127 86 127 65 82 -30 -51
85 -107 127 103 -92 114 -127 -127
127 127 -102 127 -27 -29 -7 127
89 22 -78 -91 61 120 127 127
48 2 -125 -30 86 39 54 108
-97 -105 118 -111 -102 127 38 124
127 -127 -34 82 -53 94 -122 55
119 -96 -111 127 127 -64 -119 122
-127 93 127 127 127 -127 -92 45
